…
           'NET_G': '',
           'SNAPSHOT_INTERVAL': 1000,
           'VIS_COUNT': 64},
 'TREE': {'BASE_SIZE': 64,
          'BASE_SIZE_1': 64,
          'BASE_SIZE_2': 32,
          'BRANCH_NUM': 3},
 'WORKERS': 4}
/home/caoshujian/anaconda3/lib/python3.8/site-packages/torchvision/transforms/transforms.py:280: UserWarning: Argument interpolation should be of type InterpolationMode instead of int. Please, use InterpolationMode enum.
  warnings.warn(
Load filenames from: /opt/caoshujian/HD_GAN/Data/train/train_files_1w.pickle (10000)
DataParallel(
  (module): G_NET(
    (ca_net): CA_NET(
      (fc): Linear(in_features=768, out_features=512, bias=True)
      (relu): GLU()
    )
    (h_net1): INIT_STAGE_G(
      (fc): Sequential(
        (0): Linear(in_features=228, out_features=16384, bias=False)
        (1): BatchNorm1d(16384, eps=1e-05, momentum=0.1, affine=True, track_running_stats=True)
        (2): GLU()
      )
      (upsample1): Sequential(
        (0): Interpolate()
        (1): Conv2d(1024, 1024, kernel_size=(3, 3), stride=(1, 1), padding=(1, 1), bias=False)
        (2): BatchNorm2d(1024, eps=1e-05, momentum=0.1, affine=True, track_running_stats=True)
        (3): GLU()
      )
      (upsample2): Sequential(
        (0): Interpolate()
        (1): Conv2d(512, 512, kernel_size=(3, 3), stride=(1, 1), padding=(1, 1), bias=False)
        (2): BatchNorm2d(512, eps=1e-05, momentum=0.1, affine=True, track_running_stats=True)
        (3): GLU()
      )
      (upsample3): Sequential(
        (0): Interpolate()
        (1): Conv2d(256, 256, kernel_size=(3, 3), stride=(1, 1), padding=(1, 1), bias=False)
        (2): BatchNorm2d(256, eps=1e-05, momentum=0.1, affine=True, track_running_stats=True)
        (3): GLU()
      )
      (upsample4): Sequential(
        (0): Interpolate()
        (1): Conv2d(128, 128, kernel_size=(3, 3), stride=(1, 1), padding=(1, 1), bias=False)
        (2): BatchNorm2d(128, eps=1e-05, momentum=0.1, affine=True, track_running_stats=True)
        (3): GLU()
      )
    )
    (img_net1): GET_IMAGE_G(
      (img): Sequential(
        (0): Conv2d(64, 3, kernel_size=(3, 3), stride=(1, 1), padding=(1, 1), bias=False)
        (1): Tanh()
      )
    )
    (h_net2): NEXT_STAGE_G(
      (jointConv): Sequential(
        (0): Conv2d(192, 128, kernel_size=(3, 3), stride=(1, 1), padding=(1, 1), bias=False)
        (1): BatchNorm2d(128, eps=1e-05, momentum=0.1, affine=True, track_running_stats=True)
        (2): GLU()
      )
      (residual): Sequential(
        (0): ResBlock(
          (block): Sequential(
            (0): Conv2d(64, 128, kernel_size=(3, 3), stride=(1, 1), padding=(1, 1), bias=False)
            (1): BatchNorm2d(128, eps=1e-05, momentum=0.1, affine=True, track_running_stats=True)
            (2): GLU()
            (3): Conv2d(64, 64, kernel_size=(3, 3), stride=(1, 1), padding=(1, 1), bias=False)
            (4): BatchNorm2d(64, eps=1e-05, momentum=0.1, affine=True, track_running_stats=True)
          )
        )
        (1): ResBlock(
          (block): Sequential(
            (0): Conv2d(64, 128, kernel_size=(3, 3), stride=(1, 1), padding=(1, 1), bias=False)
            (1): BatchNorm2d(128, eps=1e-05, momentum=0.1, affine=True, track_running_stats=True)
            (2): GLU()
            (3): Conv2d(64, 64, kernel_size=(3, 3), stride=(1, 1), padding=(1, 1), bias=False)
            (4): BatchNorm2d(64, eps=1e-05, momentum=0.1, affine=True, track_running_stats=True)
          )
        )
      )
      (upsample): Sequential(
        (0): Interpolate()
        (1): Conv2d(64, 64, kernel_size=(3, 3), stride=(1, 1), padding=(1, 1), bias=False)
        (2): BatchNorm2d(64, eps=1e-05, momentum=0.1, affine=True, track_running_stats=True)
        (3): GLU()
      )
    )
    (img_net2): GET_IMAGE_G(
      (img): Sequential(
        (0): Conv2d(32, 3, kernel_size=(3, 3), stride=(1, 1), padding=(1, 1), bias=False)
        (1): Tanh()
      )
    )
    (h_net3): NEXT_STAGE_G(
      (jointConv): Sequential(
        (0): Conv2d(160, 64, kernel_size=(3, 3), stride=(1, 1), padding=(1, 1), bias=False)
        (1): BatchNorm2d(64, eps=1e-05, momentum=0.1, affine=True, track_running_stats=True)
        (2): GLU()
      )
      (residual): Sequential(
        (0): ResBlock(
          (block): Sequential(
            (0): Conv2d(32, 64, kernel_size=(3, 3), stride=(1, 1), padding=(1, 1), bias=False)
            (1): BatchNorm2d(64, eps=1e-05, momentum=0.1, affine=True, track_running_stats=True)
            (2): GLU()
            (3): Conv2d(32, 32, kernel_size=(3, 3), stride=(1, 1), padding=(1, 1), bias=False)
            (4): BatchNorm2d(32, eps=1e-05, momentum=0.1, affine=True, track_running_stats=True)
          )
        )
        (1): ResBlock(
          (block): Sequential(
            (0): Conv2d(32, 64, kernel_size=(3, 3), stride=(1, 1), padding=(1, 1), bias=False)
            (1): BatchNorm2d(64, eps=1e-05, momentum=0.1, affine=True, track_running_stats=True)
            (2): GLU()
            (3): Conv2d(32, 32, kernel_size=(3, 3), stride=(1, 1), padding=(1, 1), bias=False)
            (4): BatchNorm2d(32, eps=1e-05, momentum=0.1, affine=True, track_running_stats=True)
          )
        )
      )
      (upsample): Sequential(
        (0): Interpolate()
        (1): Conv2d(32, 32, kernel_size=(3, 3), stride=(1, 1), padding=(1, 1), bias=False)
        (2): BatchNorm2d(32, eps=1e-05, momentum=0.1, affine=True, track_running_stats=True)
        (3): GLU()
      )
    )
    (img_net3): GET_IMAGE_G(
      (img): Sequential(
        (0): Conv2d(16, 3, kernel_size=(3, 3), stride=(1, 1), padding=(1, 1), bias=False)
        (1): Tanh()
      )
    )
  )
)
# of netsD 3
[1/600][277] Loss_D: 4.09 Loss_G: 3.27 Loss_KL: 0.12 lr_g: 0.00020000 lr_d: 0.00020000 Time: 66.38s
                                  
[2/600][277] Loss_D: 4.10 Loss_G: 3.59 Loss_KL: 0.09 lr_g: 0.00020000 lr_d: 0.00020000 Time: 64.74s
                                  
[3/600][277] Loss_D: 3.41 Loss_G: 4.78 Loss_KL: 0.16 lr_g: 0.00020000 lr_d: 0.00020000 Time: 65.18s
…
